simulation/best_weights_25_try2.npy (npy, 9128 bytes, 1 tensors)

array f8 [1125]
0	0x3faaf0d3cd7f023a	0.05261861690042165
1	0xbff439a72fa01d24	-1.2640754566544468
2	0x3fa2b0cfe505f7b0	0.03650521918005667
3	0xbfe7f61339d1cfc8	-0.74878846447836
4	0xbfe476545e48c214	-0.6394445268143181
5	0xbfa7b969e85ef7f0	-0.0463364692836733
6	0xbfa87c6a5630af50	-0.04782421400190506
7	0xbfbd6ce009220190	-0.11494255278558385
8	0xbfbe57c4d35db2d6	-0.11852674637129765
9	0x3fef56de55689c80	0.9793540638101064
10	0x3fbc7479a98fafb8	0.11115227117232862
11	0xbfedce644e03758e	-0.9314443134023109
12	0x3fcd4c6c466b3c90	0.22889474333212378
13	0xbfdbbcc3af44910c	-0.43339626422881916
14	0x3ff5549518651663	1.3331500008511277
15	0x3fe8de4c2f8df1fa	0.7771359375761329
16	0x3feabaed1e78048c	0.8353181452840928
17	0xbffa095c57e3d305	-1.6272853310776452
18	0x3fefaf3cbeb54ed6	0.9901412701387595
19	0xbfdb0c5d5b7b9684	-0.4226296800028211
20	0x3fe4f226573a7872	0.6545592979125685
21	0x3ffc14f25475c76a	1.7551139163228648
22	0x3faf0398456e9cd8	0.060574301219554705
23	0xbfebbee7ce0d31c7	-0.8670538925594479
24	0xbfdc7e502ad710ce	-0.4452095430717805
25	0xbfd16ccbadfc8509	-0.27226535788402423
26	0x3fec8e369b1b1744	0.8923600224886532
27	0xbfe4cc3bb97a090c	-0.6499308226196105
28	0x3ff6331a05d2031d	1.3874759890897572
29	0x3fe45c3d9ab0efca	0.6362598439513871
30	0x3fd190d03838453c	0.274463705923228
31	0xbfd6b2a577db4dd0	-0.3546537085032613
32	0x3ff09bf70cef8050	1.0380774026198374
33	0x3fab3f543521bc2e	0.05321753643590231
34	0xbf9bc18fd0f947f8	-0.02710556710218978
35	0x3fe8e83912ba4b0c	0.7783475271010913
36	0x3fe028984b1b3875	0.5049554316444885
37	0x3ff01fcc6c322ab3	1.007763311996922
38	0x3fe2dd609be8dde2	0.5895236058340141
39	0xbf9537facecc05a0	-0.02072135817707521
40	0x3fedae3689b25840	0.9275162400615571
41	0x3fe085202d5d56e0	0.5162506948497274
42	0x3fe8cc26815ce5a8	0.7749207045191513
43	0x3fe4fa165c47eb1a	0.6555282404291092
44	0x3fc4d70fd44601c4	0.16281316628375297
45	0xbff05053e11152f9	-1.0196112434106779
46	0x3fd42b30272142d6	0.3151359922531304
47	0xbff2c04d0ae29304	-1.171948473472356
48	0xbfdbe09e98bf53e0	-0.4355846873925753
49	0xbfe79215851ddefe	-0.7365825271544677
50	0x3fd6cc4ceed59c20	0.35621951411889263
51	0x3ffd48bd863b570c	1.8302588694982118
52	0x3fefd1743a0ed166	0.9943181165640851
53	0xbfe3d107945c11e7	-0.6192663095139864
54	0xbfda0c0426d0443b	-0.40698341169724345
55	0xbfcff72b91c11fa3	-0.2497305356685021
56	0xbfae779592567f90	-0.05950610553122637
57	0xbfb2e4884e18ad90	-0.07379962832117415
58	0x3ff00002859dd0b0	1.0000024051087557
59	0xbfd8c7917f2171b6	-0.38718068518735593
60	0xbff007da978d9a2c	-1.0019174499553953
61	0x3fd5ee1a72524eb6	0.34265767254076296
62	0x3fa6f5d2632a39b0	0.04484422169217639
63	0xbfc8362fe787f58e	-0.1891536598704246
64	0xbfe2ad4767fc44cc	-0.5836522131886794
65	0x3feba7bdfebab50e	0.8642263388807423
66	0x3ffa2707fb5170f9	1.6345290963282066
67	0x3ff1b12bf881f3d5	1.1057548243836568
68	0x3ff5bcbc8a6f77e8	1.358578243983624
69	0xbfe5dea2312977ba	-0.6834269485659583
70	0x3fefcc228db6354b	0.9936688201720839
71	0xbfef3c3cc3741602	-0.9761031930399329
72	0xbfc3d5178d8d123e	-0.1549405518691333
73	0x3ff566e38f1b5c9c	1.3376193609345028
74	0x3fda6e3b0127dcca	0.41297793496000834
75	0xbff29ecc685cee58	-1.1637691570930624
76	0x3fe5155112cb3470	0.6588521353784369
77	0x3fd59e43452412a0	0.33778459312478937
78	0xc00050c07facef8e	-2.039429662194329
79	0x3fc659477d9ae64c	0.17459958680210474
80	0xbfc9bd4f47bd0c7a	-0.20108977320532856
81	0xbfef82332b4aaa1a	-0.9846435399570652
82	0x3ff046f943e45fa9	1.0173275615725095
83	0x3ff08e13bcabb9d4	1.0346867914155284
84	0xbfa1f3aae5b2f7e4	-0.03506216100639373
85	0x3fd9bc9d83de0a06	0.40213716390294996
86	0xbfed987bc121df44	-0.924863698207425
87	0xbfe02400cffbce5c	-0.5043949186496763
88	0xbf9a147c9520ba30	-0.02546877536968334
89	0x3fb9e7a8ed018d6a	0.10119109903603421
90	0x3fbe1d6995af2e12	0.11763629822160507
91	0x3febb24332d71e0b	0.8655105584120418
92	0xbfc01ef4e1730d50	-0.1259447193934684
93	0xbfec978ebc8b3714	-0.8935006792541764
94	0xbff1c013ab38e1fa	-1.1093937576644053
95	0xbfe84ec63266fb15	-0.7596159920138655
96	0x3fdb76a946b50f75	0.4291175070286422
97	0xbfce302976cb5328	-0.2358447866487492
98	0x3fd0c327b948f4f0	0.2619113263534265
99	0x3fe8e7f61b7343d2	0.7783155952584997
100	0xbfefa06f9d99f7a1	-0.9883344724801085
101	0xbfe1ba12216506a2	-0.5539637233961978
102	0x3f9e31583019d3c0	0.02948510926804082
103	0xbff05f7651366fff	-1.0233061954850198
104	0x3fe94755c5a1f78c	0.7899578914655065
105	0x3fdf68422bc16548	0.4907384326266606
106	0xbfd46572ab448f00	-0.31869189000484255
107	0x3fdf917f1f526b84	0.49325540598663786
108	0xbff61ccc656ab646	-1.382030864867731
109	0x3fe4784bc1b10b37	0.6396845610655423
110	0xbfdf09658bb477aa	-0.48494852679311384
111	0xbfe07b8cb9befc80	-0.5150817516186095
112	0x3fe2dc37132ce510	0.5893817305106115
113	0xbff23f62e457e0e5	-1.1404751701029963
114	0x3fefbdca08aa2dd6	0.9919176263078338
115	0xbfe938c71d327c85	-0.7881808824785287
116	0xbfcbb2c5eb917590	-0.21639322283128282
117	0x3ff422938b3dff70	1.25844149009205
118	0x3fe3d168fab5adef	0.6193127533601323
119	0x3fe201a6c6e0c033	0.5627015957197784
120	0xbfe26b826ab594e0	-0.5756237110296318
121	0xbfe5b1fff05e7d48	-0.6779784865101783
122	0x3fca44b6853ceb04	0.2052219534469587
123	0xbff0db17a245e40f	-1.0534893358983515
124	0x3ff37df36a642555	1.218249717321972
125	0xbfd16d02b33e2ef6	-0.2722784758013711
126	0x3fdec7d99566fdbf	0.48094787206715844
127	0xbfb48b40358b1400	-0.08024979884346806
128	0xbfd49a2bede85556	-0.32190988763007533
129	0xbfdd0940cb65d7fa	-0.4536897646243002
130	0x3ff3485f7c3472ad	1.2051691867592738
131	0x3fe82b845106b245	0.7553121168653624
132	0x3fe9cf4db312588c	0.8065556046956472
133	0xbfd5c1559f87f960	-0.33992519931043397
134	0x3fb7ff3eab7c8dac	0.0937384766262343
135	0xc0092ed6e19a1579	-3.1478707909724872
136	0x3fd243d498905110	0.2853900422935718
137	0x3fd85fbcfa1d4d00	0.38084339547386037
138	0xbfd04a475237ce17	-0.2545336058530849
139	0xbfb740e59ae60594	-0.09083399802877629
140	0xbfd858689b7083a5	-0.38039603404655004
141	0x3fe51ce8e642a8dc	0.6597790238640999
142	0xbfcdbc7187e08192	-0.2323133386098673
143	0xbfd574107af92132	-0.3352090073499482
144	0x3fe42bb44e73edf8	0.6303350002557968
145	0x3fe3ea81cc13a24e	0.6223763452408748
146	0x3fed308fad011560	0.9121778849591173
147	0x3ff42aec11245544	1.2604790372473227
148	0xbfe24fd6969d7572	-0.5722458783817912
149	0xbfe37339eb1d33ce	-0.6078157035896028
150	0x3fe4d607a7da96d3	0.6511266973872928
151	0x3fe2a8843b419dfe	0.5830708653783743
152	0xbfa96d75c942d6e0	-0.04966323930550032
153	0xbfe7364cde1125f5	-0.7253784501310166
154	0x3fdbe94996906bdc	0.43611373618631233
155	0xbfe39e24574a5896	-0.6130544381037619
156	0xbfe1538c6620a0cd	-0.5414487833668545
157	0x3ffe78b62548e123	1.9044705826218624
158	0x3fd4ba910b918160	0.3238871205303635
159	0xbffbf619d6083abd	-1.7475832329397882
160	0x400272f895ca4fbd	2.3061382009854854
161	0x3fe05ab32c02ec1b	0.5110717639539674
162	0xbff617e0d01dc9f5	-1.3808296327157425
163	0x3ff7c38b2f9e57cb	1.4852401599978176
164	0xbfe1aefffbbdc086	-0.5526122967549021
165	0x3fe9a0d571411a62	0.8008830272672862
166	0xbfe83aaba22fd7e0	-0.7571619193756725
167	0x3fef9bf91eca3613	0.9877896882405274
168	0x40052baa18d2108b	2.6463205279451976
169	0x3f7e26fa2a351300	0.007361390310795413
170	0x3fd9900c2960b351	0.399416962058969
171	0x3fe24cada8946fc1	0.5718601505827722
172	0x3fc7616c14236587	0.18266058905900825
173	0xbfc8856642484270	-0.19157102810324345
174	0xbfd039c0242c4b6a	-0.25352481396219295
175	0xbfca2e84bd542e04	-0.20454463238307607
176	0x3fe04b07a33e2fc6	0.5091589153612339
177	0x3ffc39fdcb3cd494	1.76415805234618
178	0x3fe56323f173504b	0.6683520999745353
179	0xbff6564c55c6b192	-1.3960688925390952
180	0xbfd2f8209ba71137	-0.2963944931073174
181	0xbfe9ff2cc693606a	-0.8123992803985065
182	0xbff0d378dd764d68	-1.0516289378036507
183	0xbfbc1173f55afb72	-0.1096413110744672
184	0x3ff6714e203493f1	1.4026623971960783
185	0xbfe065096d8bb880	-0.512333597141847
186	0xbfee16564bd2159d	-0.940226696097557
187	0x3ffd3165cd8acfa0	1.8245599774354346
188	0x3fe3616b1562317a	0.6056418817184259
189	0x3ff5cc40b0d4dcd3	1.362366381404901
190	0xbfd89fc424f8d611	-0.3847513543181274
191	0x3fd6b3361708524e	0.35468818902271415
192	0x3fcbe4a2db7242d0	0.21791492190506867
193	0x3fdfd87704ea77c7	0.49758697013919256
194	0xbfef62a97123a994	-0.9807936868431164
195	0xbfe835eb204db495	-0.7565818434647037
196	0xbff9606a1e285e3e	-1.5860387018236817
197	0xc0014c11f18cd6c6	-2.162143599615635
198	0xbff94a288927b2ca	-1.5806050641651148
199	0xbfee1c8f8c05cf48	-0.940986417276215
200	0xbfeecadb5eff43ba	-0.9622628074085846
201	0x3fd84d70410c1962	0.3797264704920932
202	0xbfd98f045316fa08	-0.3993540584014288
203	0xbfc364d8ab27de18	-0.15151508671964176
204	0x3ff9451b22a9f794	1.57937158146476
205	0xbfaaacba042f7660	-0.0520990495785838
206	0x3ff3dd92ea101fc3	1.2415951865277612
207	0x3fc221dcf1d8b072	0.14165841874035184
208	0x3feddeea477a3c84	0.9334613224072119
209	0xbfd4dd7e34e5d268	-0.3260188595370779
210	0x3fdb35e2ce6c37cd	0.425163938126272
211	0xbfe805743669f288	-0.7506657660265583
212	0x3f98047092790100	0.023454436244947807
213	0x3fd6fb94d6378131	0.35910530967341275
214	0x3feb8ae214b9db36	0.8607035069279394
215	0xbf9a8712433833b0	-0.02590588126445298
216	0xbfd990b03ac647ac	-0.3994560789079695
217	0xbfdb9517c6c3a9f9	-0.43097490702226043
218	0xbfec71aa11de5ade	-0.8888750409122073
219	0xbfefb9428abbdc18	-0.9913647374768315
220	0x3fe970cc59982538	0.7950193166626951
221	0x3feaa6a71b8a4823	0.8328433549779714
222	0xbfe759da925536dd	-0.7297184808791958
223	0xbfe2c2f26b883c83	-0.5862972355115662
224	0xbfd1bcea3da2dbcd	-0.27715545672566294
225	0xbfc48ed03a392628	-0.16060831873828474
226	0xbff03108acb53a15	-1.0119711634066608
227	0xbfd70fc11bf41abe	-0.360336568163273
228	0xc000b2932bf5ac52	-2.087194770274018
229	0xbfb367d820331920	-0.07580328737376307
230	0xbfe5c2b030eac5e3	-0.6800156550800093
231	0x3fe8fd001def2e46	0.7808838448194784
232	0x3fefcbfc6fa830fc	0.9936506443787319
233	0xbfe1f112e78179aa	-0.5606779595944336
234	0x3fde2ee2da93b96c	0.4716117033521161
235	0x3fffac6a3ea6a5ac	1.9795935103705729
236	0xbfdecb1466f59842	-0.48114500097870316
237	0xbfd644bac50b9cea	-0.34794491999350774
238	0xbfdc71e168a4591a	-0.44445071429199035
239	0x3fe7451a29abcb10	0.7271853269470245
240	0x3fe8823ed8255a28	0.7658991071319337
241	0x3fb0eeec4b0041c0	0.06614567595557386
242	0xbfe289f41255994c	-0.5793400152295276
243	0x3fd12543b2528ee2	0.26789944090181284
244	0xbff9811260db03dc	-1.5940116675776528
245	0x3fefb1d4ed6ade6b	0.9904579770145124
246	0xbfaf72e2960960c0	-0.06142337876798498
247	0xbfd8c3da9d9d2238	-0.3869539775082873
248	0x3feae7a56d73a6d7	0.8407771241884018
249	0xbff3818608915206	-1.219121964900411
250	0x3fcbb9b3b6e673ac	0.21660467558549834
251	0xbfdcdb843c9f542c	-0.45089822693018067
252	0xbff26fcbed92c2fe	-1.1522940902906949
253	0xbfd2f247944422c3	-0.2960375736152338
254	0x3fd60a4bce82f5eb	0.34437842528481494
255	0xbfe139a307f6ca9b	-0.5382857471034471
